…
ctly, use tensor.untyped_storage() instead of tensor.storage()\n",
<             "  return super().__sizeof__() + self.nbytes()\n"
<           ]
<         },
<         {
<           "data": {
<             "text/plain": [
<               "==========================================================================================\n",
<               "Layer (type:depth-idx)                   Output Shape              Param #\n",
<               "==========================================================================================\n",
<               "ImageClassifierNet                       [64, 10]                  --\n",
<               "├─Sequential: 1-1                        [64, 16, 7, 7]            --\n",
<               "│    └─Conv2d: 2-1                       [64, 8, 28, 28]           80\n",
<               "│    └─BatchNorm2d: 2-2                  [64, 8, 28, 28]           16\n",
<               "│    └─ReLU: 2-3                         [64, 8, 28, 28]           --\n",
<               "│    └─MaxPool2d: 2-4                    [64, 8, 14, 14]           --\n",
<               "│    └─Conv2d: 2-5                       [64, 16, 14, 14]          1,168\n",
<               "│    └─BatchNorm2d: 2-6                  [64, 16, 14, 14]          32\n",
<               "│    └─ReLU: 2-7                         [64, 16, 14, 14]          --\n",
<               "│    └─MaxPool2d: 2-8                    [64, 16, 7, 7]            --\n",
<               "├─Sequential: 1-2                        [64, 10]                  --\n",
<               "│    └─Linear: 2-9                       [64, 64]                  50,240\n",
<               "│    └─ReLU: 2-10                        [64, 64]                  --\n",
<               "│    └─Linear: 2-11                      [64, 10]                  650\n",
<               "==========================================================================================\n",
<               "Total params: 52,186\n",
<               "Trainable params: 52,186\n",
<               "Non-trainable params: 0\n",
<               "Total mult-adds (M): 21.93\n",
<               "==========================================================================================\n",
…
only storage class. This should only matter to you if you are using storages directly.  To access UntypedStorage directly, use tensor.untyped_storage() instead of tensor.storage()\n","  return super().__sizeof__() + self.nbytes()\n"]},{"output_type":"execute_result","data":{"text/plain":["==========================================================================================\n","Layer (type:depth-idx)                   Output Shape              Param #\n","==========================================================================================\n","ImageClassifierNet                       [128, 10]                 --\n","├─Sequential: 1-1                        [128, 8, 7, 7]            --\n","│    └─Conv2d: 2-1                       [128, 8, 28, 28]          80\n","│    └─BatchNorm2d: 2-2                  [128, 8, 28, 28]          16\n","│    └─ReLU: 2-3                         [128, 8, 28, 28]          --\n","│    └─MaxPool2d: 2-4                    [128, 8, 14, 14]          --\n","│    └─Conv2d: 2-5                       [128, 8, 14, 14]          584\n","│    └─BatchNorm2d: 2-6                  [128, 8, 14, 14]          16\n","│    └─ReLU: 2-7                         [128, 8, 14, 14]          --\n","│    └─MaxPool2d: 2-8                    [128, 8, 7, 7]            --\n","├─Sequential: 1-2                        [128, 10]                 --\n","│    └─Linear: 2-9                       [128, 64]                 25,152\n","│    └─ReLU: 2-10                        [128, 64]                 --\n","│    └─Linear: 2-11                      [128, 10]                 650\n","==========================================================================================\n","Total params: 26,498\n","Trainable params: 26,498\n","Non-trainable params: 0\n","Total mult-adds (M): 25.99\n","==========================================================================================\n","Input size (MB): 0.40\n","Forward/backward pass size (MB): 16.13\n","Params size (MB): 0.11\
…
